deepfake_smallcnn.pt (torch, 98649 bytes, 8 tensors)

net.0.weight f4 [16, 3, 3, 3]
000000 72 1a 1d 3e dd 02 2a 3e ba fa 1e bd f8 7e 3b 3e
       0.1534212 0.16602655 -0.03881333 0.18310153
000010 bc cd 12 bd c0 e6 38 3d 36 e5 b2 bd 19 7e f4 3d
       -0.035840735 0.045141935 -0.08735125 0.11938114
000020 68 39 34 3e 3f 9b 0d be e1 43 2e 3e 34 53 1f 3d
       0.17600024 -0.13828753 0.17018081 0.038897708
000030 9c 99 14 3e 45 a3 ed 3c d7 06 c4 3d b2 61 c6 bc
       0.14511722 0.029008517 0.09571617 -0.024216507
000040 06 f6 1a 3e d0 9d 00 3d 26 46 b0 bd a4 5d 58 3d
       0.15132913 0.0314005 -0.0860713 0.052823678
000050 f2 f4 ad bd f0 bf 99 bc f6 4a 98 bd 58 95 06 3e
       -0.08493985 -0.01876828 -0.07436173 0.13142908
000060 33 a5 17 be c6 db ad bd 2b 07 4f bd 0a 01 e0 bd
       -0.14809112 -0.08489184 -0.050543945 -0.10937698
000070 ad 68 c8 3c 07 39 3c be 21 87 38 3e 37 e4 20 be
       0.024463976 -0.18381129 0.18020298 -0.15712057
000080 28 9f 1e 3e 0b 9c 1d 3d 36 ae 65 bd 54 53 00 3e
       0.15490401 0.038478892 -0.056074344 0.12531787
000090 93 6b 0f 3d ae 4f 24 3e e0 aa d4 3c 59 cb 63 bd
       0.0350147 0.1604602 0.025960386 -0.05561385
0000a0 56 5e 68 3d 53 61 41 bd 87 5d b0 3d 12 23 35 3e
       0.05673059 -0.047211956 0.08611589 0.1768916
0000b0 8f 26 ee 3d 0b 4c a0 bd ef 67 ef 3d 42 96 24 3d
       0.11628448 -0.07827004 0.11689746 0.04018236
0000c0 54 48 d4 3d 01 3d e4 bd 91 24 3d be bc 11 8c bd
       0.10365358 -0.11144448 -0.1847098 -0.0683932
0000d0 66 1d 11 be 8c b3 27 3e 15 95 4f 3d b7 3c 9a 3d
       -0.14171371 0.16377085 0.050679285 0.07531112
0000e0 29 5c 69 3d e7 84 06 bc 08 60 15 3e 73 46 10 be
       0.056972656 -0.008210397 0.14587414 -0.14089374
0000f0 ff 17 ee 3b 3d 7d 0b be 4c 2a 60 3d b6 0d 91 bd
       0.007266044 -0.13621993 0.054727837 -0.07082693
000100 9d 77 61 3d 6c 6d 2e bd c3 9c 1e 3e 7c e1 f2 bd
       0.055045713 -0.04258482 0.15489487 -0.11859414
000110 c9 e9 f1 bd 0d b6 f4 bd 32 6b 2c 3e 92 ff 74 3d
       -0.11812169 -0.11948786 0.16837767 0.059814043
000120 72 2d 39 3e f7 21 26 be 18 da 44 be b1 dc 1e be
       0.18083742 -0.16223894 -0.19223821 -0.15513875
000130 cb fa 08 be 87 59 9a 3d 96 d2 83 3d e5 10 1f 3e
       -0.1337692 0.07536607 0.064366505 0.15533789
000140 29 b4 d3 bd 2e 22 13 be 45 8c b7 3d 54 d3 b8 bd
       -0.10337097 -0.14368507 0.08962301 -0.09024683
000150 8f 81 d6 3d ec 62 6c bd b0 e9 c8 3d 27 5c 25 be
       0.1047393 -0.057711527 0.09810197 -0.16148435
000160 1b 42 df bd 04 02 40 3d a0 6f e6 3c 32 62 7c bd
       -0.109012805 0.046876922 0.028129399 -0.061617084
000170 d2 38 d1 3d 7e 9b f3 3d 27 09 1b be 4b a4 ea bd
       0.10215916 0.11894892 -0.1514021 -0.11457118
000180 42 84 28 3e 8c bc 9c bd 1a 4c a3 bd 48 c3 4a be
       0.16456702 -0.0765315 -0.079734996 -0.19801056
000190 ee dc f9 bd 0f 9a 14 3d b8 b4 14 bd de 28 1a be
       -0.12200342 0.036279734 -0.03630516 -0.15054652
0001a0 ee ea cf bb be 89 11 be 32 ff 31 be e1 83 ee bd
       -0.0063451445 -0.142127 -0.17382506 -0.11646248
0001b0 22 7a 2c be 68 f6 fa bd e7 fd 44 3e b0 e2 14 3d
       -0.16843465 -0.122540295 0.19237481 0.036349
0001c0 2c ea 72 3d 96 cd 37 be 00 6e 01 be ea 30 83 bd
       0.059305355 -0.17949519 -0.12639618 -0.06405814
0001d0 f0 86 f6 3c b6 67 2d be c7 d2 a9 bd 39 f5 eb bd
       0.03009364 -0.16934094 -0.08292156 -0.11521382
0001e0 00 cf 0b 3a f2 a8 92 bd 20 7f 5a bc 2c 8a 05 be
       0.00053332746 -0.0716113 -0.013335973 -0.1304099
0001f0 63 44 07 be d1 f0 e5 bd 90 e9 86 bd ef 8a 1b be
       -0.13209681 -0.11227573 -0.06587517 -0.15189718
000200 7f 3c 25 3e c0 71 1c bd b3 8e 29 3e d4 9c 75 3d
       0.16136359 -0.038194418 0.16558342 0.059964016
000210 9a e0 26 be ed 60 08 3e d4 e3 58 bd 6e 8b 91 bd
       -0.16296616 0.13318224 -0.05295165 -0.07106672
000220 81 8d 21 be 5d 33 45 be c9 11 59 3d 5d 3a 35 bd
       -0.15776636 -0.19257875 0.052995477 -0.044245113
000230 fc 1e 92 3d 6f 2d 24 be dd dc 0f 3e 19 96 14 be
       0.07134816 -0.16032957 0.14049096 -0.14510383
000240 bc 6b fa bc 20 d6 2c 3d 81 34 c9 3d 42 93 1d 3e
       -0.03056895 0.042196393 0.098244675 0.15388206
000250 52 bd 31 3e 1f 80 1f be 1e e1 3e 3d 97 83 ad bd
       0.17357376 -0.15576218 0.046601407 -0.084723644
000260 70 0b c9 bc a9 39 13 be c3 a5 33 3e ce 77 13 be
       -0.024541587 -0.14377464 0.17543702 -0.1440117
000270 e2 a8 ce 3d f7 3c 86 3d 61 10 72 3d bc d7 d9 bd
       0.100908056 0.06554597 0.05909765 -0.10636851
000280 3b c4 30 3e a0 ef 1d 3d 36 b4 03 3d 41 ff 25 be
       0.17262356 0.038558602 0.032154284 -0.16210653
000290 d2 3a b4 3d c8 46 ad bc 93 99 a4 bd 99 e9 30 3e
       0.088002816 -0.021151915 -0.080371045 0.1727661
0002a0 9e 4d 50 3d 4a 1d ca bd 53 d0 b8 bd 15 b9 1a bb
       0.05085527 -0.09868868 -0.0902411 -0.0023608853
0002b0 44 34 ea 3d d9 1c 35 bd 5e f7 d1 bd ad 9e 6f bd
       0.1143575 -0.044216964 -0.1025226 -0.058500934
0002c0 b0 21 0c be 9a 48 9c 3d 61 45 20 3e 2f a1 32 be
       -0.13684726 0.07631035 0.15651466 -0.17444299
0002d0 1b c4 54 3d 50 ac da 3d 99 b3 2b 3d d1 c9 79 bd
       0.051944833 0.10677397 0.041919325 -0.060983483
0002e0 17 5c dd 3d 16 f9 dd 3d 81 50 a3 3d fa ce d6 bc
       0.1080858 0.10838525 0.07974339 -0.026221741
0002f0 6b 77 34 bd 24 12 da 3c a2 6a e5 bc f2 cc 52 bd
       -0.0440592 0.026619978 -0.028004948 -0.051464982
000300 db 2c 04 3e a5 88 2f 3e bc 2a 57 bc 99 82 17 bd
       0.12907736 0.1714197 -0.013132747 -0.036989782
000310 09 64 11 3c 32 d5 b4 bb 8e 77 50 3d 24 a8 6f 3d
       0.008873948 -0.005518579 0.050895266 0.05850996
000320 12 72 2e be 72 e7 87 bd 96 b0 2a 3e 54 b4 a2 3d
       -0.17035702 -0.066359416 0.16668925 0.07944551
000330 c9 14 a0 bb 02 1c e4 bd 96 df e7 bd e0 db 2a be
       -0.0048852903 -0.111381546 -0.113219425 -0.16685438
000340 ac 83 6a bd e3 06 90 3d f3 5a 03 3e e2 44 c1 3d
       -0.05725448 0.070325635 0.12827663 0.094369665
000350 ac b2 28 be 46 90 e1 bd 05 64 cb bc 49 2f 44 3e
       -0.16474408 -0.11013846 -0.024827966 0.19158663
000360 5e 34 08 3d 30 fa 39 bd cb 01 ac 3d 3b bf 8f bd
       0.033253066 -0.045404613 0.083987795 -0.07018896
000370 77 91 f9 bd c3 94 11 3e 83 5e b2 bd 15 93 18 bd
       -0.12185948 0.14216904 -0.08709433 -0.037249643
000380 dc f9 41 be 35 72 0a 3e 62 ef 1a 3e f7 7d 9a 3d
       -0.1894297 0.13520129 0.1513038 0.07543557
000390 81 f1 03 be 16 f6 3d be 9f c1 1c be 8a 4c 15 3e
       -0.12885095 -0.18550906 -0.15308236 0.14579979
0003a0 bf d5 c3 3d d8 ee 29 3e 9e 60 dc 3d 59 d9 5f 3d
       0.09562253 0.16595018 0.10760616 0.05465064
0003b0 e2 4e 7e 3b af c8 0f be fc 70 23 be cd 26 34 be
       0.0038804342 -0.14041398 -0.15961069 -0.17592926
0003c0 12 eb a7 3d 8d 83 b8 bd 68 d5 08 bd d6 13 e6 bd
       0.08199133 -0.09009466 -0.033406645 -0.11234252
0003d0 6a e4 15 bd 24 10 0c be 3b 64 02 be d1 af 7f 3d
       -0.036594786 -0.13678032 -0.12733547 0.06242353
0003e0 0d 60 6f bd 97 44 f1 3d 8f 54 80 bd c1 70 11 be
       -0.05844121 0.117806606 -0.06266128 -0.14203168
0003f0 6f 69 17 bd 4f 2e c5 bd 14 09 7d bd fe ba 3e be
       -0.036965784 -0.09627973 -0.061776236 -0.1862602

net.0.bias f4 [16]
000000 87 59 8f bd a5 8c e8 3d c9 09 22 be 6c b7 e2 3d
       -0.06999498 0.11354951 -0.15824045 0.11070141
000010 5c e8 98 bd 0d d3 80 ba 8e 9e f4 bc 1a 7d ef 3c
       -0.07466194 -0.0009828523 -0.029860761 0.029234458
000020 55 35 65 bd 17 a8 0e 3e fe c1 23 bc a2 3c 10 3e
       -0.055959065 0.13931309 -0.009994982 0.1408563
000030 83 e2 46 3e 64 62 ac bd 95 03 11 be 8a fc 25 3e
       0.19422345 -0.08417204 -0.14161523 0.16209617

net.2.weight f4 [32, 16, 3, 3]
000000 d1 a6 76 3d 0c 19 86 bd a1 c7 3f bc 69 49 b5 bd
       0.060217682 -0.06547746 -0.01170531 -0.088518925
000010 2f b4 96 bd ec 8b 2e 3c 7b 51 70 3c 81 06 27 3c
       -0.07358586 0.010653477 0.014667864 0.010194422
000020 1d f8 ed bc 7a 25 8e 3d 8f 77 91 3b df 03 68 bd
       -0.029048974 0.06940742 0.0044393013 -0.056644317
000030 7e 21 48 bc 9c 42 4d 3c de d9 b1 3c cc 0b 88 bd
       -0.012215016 0.012528088 0.021710332 -0.06642875
000040 2e 42 c2 3c de 14 4d bd 57 d0 8d bd 56 70 3a bd
       0.023713198 -0.05006873 -0.06924503 -0.04551729
000050 b1 97 a4 3d 4f e5 91 3d 51 d4 98 3d d2 5d 48 3d
       0.08036745 0.07123815 0.07462371 0.0489176
000060 19 ee 80 3d e0 bf 36 bc a6 cf 3b bd 78 96 0c 3d
       0.062954135 -0.011154145 -0.045852326 0.034323186
000070 45 b6 4e bd 43 10 82 bd 68 b5 0a bd b7 e9 27 3c
       -0.050466795 -0.06350758 -0.03386441 0.010248593
000080 87 12 12 3d 14 ef 21 bd b6 67 66 bd 96 e4 84 3b
       0.0356622 -0.039534643 -0.05625125 0.00405557
000090 76 31 49 bd 9e 3a 5e bd b2 eb 31 3d e0 5a 65 bc
       -0.049119435 -0.05425512 0.043437667 -0.013998717
0000a0 e1 f3 9b 3d 85 05 a6 3d 7c 30 cc 3c ec f1 ea 3c
       0.076148756 0.081065215 0.024925463 0.02867981
0000b0 00 35 9d 3c d0 f7 13 bb 98 1b 0f bc a4 e0 82 3a
       0.019190311 -0.0022578128 -0.008734606 0.0009985161
0000c0 d8 3f e6 3c fd 06 99 3d aa d4 b4 bc bb c4 23 bd
       0.028106615 0.07472036 -0.022074062 -0.03998254
0000d0 e7 2c d7 bc 93 5b 37 bd a0 97 86 3c 61 f8 6c 3d
       -0.026266528 -0.044765066 0.016429722 0.05785406
0000e0 b3 98 82 3d 59 46 10 3d 3a 81 89 bd e6 30 37 bd
       0.06376781 0.03522334 -0.06714101 -0.044724368
0000f0 8b 8c 86 bc f8 a9 7b bc b3 c3 9a 3b 4f 1b ac bd
       -0.016424438 -0.015360348 0.004723036 -0.08403646
000100 22 8b 96 3c af ae 91 bd 64 b3 76 bd aa 2e 9d bd
       0.01837689 -0.071133964 -0.060229674 -0.07674916
000110 d3 41 85 3d 3f 70 b1 bd 91 e6 61 3d 33 d0 2a bc
       0.065066956 -0.08663987 0.055151526 -0.010425615
000120 6e a5 f6 bb 53 bb 6a 3d 71 33 b7 bb 82 4c 55 3d
       -0.007527045 0.057307553 -0.005590849 0.052074917
000130 83 ec 73 3d ae 2c 94 bd f0 56 03 3d 84 df 80 3c
       0.059551727 -0.072350845 0.032065332 0.01573158
000140 04 c8 92 3c e3 99 99 3b 61 5f 7b 3c 8e af 42 bd
       0.01791764 0.004687534 0.015342564 -0.047530703
000150 cc 46 94 bc 6a f1 92 3d 03 d0 46 3d 9d 1e 2c bc
       -0.018100165 0.07174952 0.04853822 -0.010505346
000160 31 9e af bd 26 65 77 bb 3a 72 73 bd 73 70 87 3d
       -0.085750945 -0.0037749498 -0.059435107 0.06613245
000170 56 84 4c bd 61 6e e4 bb ce 4a 9d bc 2f 61 7f 3c
       -0.049930893 -0.006971166 -0.019200709 0.015587135
000180 10 26 9c 3d 02 16 02 3c 65 e4 40 3d fc 1c 6a 3d
       0.07624447 0.007939817 0.047092814 0.057156548
000190 16 c3 74 3d 95 af 14 bd 4f 4b d6 bc c9 b5 05 3d
       0.05975636 -0.03630026 -0.026158957 0.032644067
0001a0 33 dd f7 bc 29 16 01 3d 6f c7 d2 bc bd 24 83 bd
       -0.030256843 0.031515274 -0.025729863 -0.06403492
0001b0 2d ba d8 3c da c5 af 3b e8 ab f3 3c e3 66 9a 3d
       0.026455963 0.005364162 0.029745057 0.07539155
0001c0 b5 b6 4a 3d cc 9d 92 3d 6f 63 37 bb 3d c6 a1 bd
       0.04949065 0.071590036 -0.002798285 -0.07899139
0001d0 24 ce 86 bd 4f 5a 4a bd 9b 40 95 bd 8d 0c 26 bd
       -0.06582287 -0.04940253 -0.07287713 -0.040539313
0001e0 dd c7 9d bd ae 75 9d bd 1e f7 4b bd be 3f a8 bd
       -0.077041365 -0.07688461 -0.049796216 -0.08215283
0001f0 c0 83 51 bd 42 27 02 3d d6 19 8e 3d 1f 38 cc bc
       -0.051151037 0.03177572 0.069385216 -0.024929104
000200 c0 92 c6 bc 01 b6 34 3d 68 67 28 bd be 64 21 bd
       -0.024239898 0.044118885 -0.04111424 -0.039402716
000210 58 bf 55 3d c0 b3 94 bd 14 c2 13 3c a6 4c 87 3d
       0.052184433 -0.07260847 0.00901844 0.066064164
000220 01 01 de 3b 2a fb 77 3c 06 a5 65 bd 7d 2a 0e bc
       0.006775022 0.015135566 -0.05606558 -0.008677122
000230 cd f0 40 bb 01 c7 54 3c be f2 cb 3c 18 e2 84 3d
       -0.0029440403 0.012986899 0.024896022 0.064884365
000240 74 6a 8b bd c9 f1 fa ba 38 10 3c bd 3f 2a 90 bd
       -0.06807414 -0.0019145544 -0.045913905 -0.07039308
000250 5e fa 35 bc b5 11 9f bd 27 13 5c 3d c1 22 ac 3b
       -0.0111070555 -0.07767049 0.053729203 0.0052531664
000260 65 9a 49 bd ca 6b 17 3d c3 f6 ae bd 8d 9a 1e bd
       -0.049219508 0.03696803 -0.0854316 -0.03872161
000270 fc f3 ba bc 20 7c 9e bd eb be 73 bd 6e fc a4 bc
       -0.022821419 -0.07738519 -0.059508245 -0.0201399
000280 ed 40 68 3d e7 88 97 3d 76 2d 59 3d 7e d1 4b bd
       0.056702543 0.07399159 0.05302187 -0.049760334
000290 b8 4e 5f bd 50 e6 92 3d 47 b9 f5 3c b6 f0 22 3b
       -0.05451843 0.07172835 0.029995574 0.0024862713
0002a0 00 c6 38 3c 0c 2a 89 bd b6 ee e3 bc d2 91 a1 3d
       0.011277676 -0.06697473 -0.027823787 0.07889141
0002b0 0b d6 b8 bc 0c 72 fd bb f4 8c 92 bd 2b c1 49 bd
       -0.022563001 -0.0077345427 -0.07155791 -0.049256485
0002c0 46 8d bd bb 0e 5d 5e bd da ef 52 bc 98 ac fe 3c
       -0.0057846634 -0.054287963 -0.012874568 0.031088158
0002d0 38 f1 a6 bd a0 c2 ca 3c 40 b1 61 bd 8e 96 26 bd
       -0.081514776 0.024751008 -0.05510068 -0.040670924
0002e0 8a 0a 03 3d 55 b3 87 3d 26 94 ba bc 13 24 0c bd
       0.031992473 0.06626002 -0.02277572 -0.03421409
0002f0 ab 52 9a bd b3 47 4d bd 1f 7c a6 bd 36 6a ec bc
       -0.07535299 -0.050117206 -0.08129143 -0.02885924
000300 16 16 4f 3c 66 a8 a8 bd cc 0e 8d 3d e5 94 36 3d
       0.012639543 -0.082352445 0.06887588 0.04457559
000310 19 9f b7 bd ee ed 4a bd c8 74 c6 3c fe f2 96 bc
       -0.08965892 -0.049543314 0.024225608 -0.018426415
000320 3a fb 44 bc c3 38 ed bc fe 0a 99 3d 9a 55 21 bd
       -0.012022788 -0.02895773 0.074728 -0.039388277
000330 71 ac 9e 3d 42 4d 05 3c f7 20 75 3c 85 23 74 3d
       0.07747734 0.0081360955 0.014961473 0.059604187
000340 98 35 9e bc 13 d8 57 bd dc 98 9c bc 71 64 7d 3d
       -0.019312665 -0.0526963 -0.019115858 0.061863367
000350 56 41 8a bd 6e 0f 62 3c 73 b2 b2 bd 89 59 1d 3d
       -0.06750743 0.013797624 -0.08725443 0.038415466
000360 87 32 b6 3c 53 a5 84 3b be 81 00 3d 32 81 97 ba
       0.02224089 0.0040480285 0.03137373 -0.0011558889
000370 11 00 3e 3d 85 f7 89 bd 87 ce 36 bb 22 e8 18 3d
       0.046386782 -0.06736664 -0.0027894096 0.037330754
000380 44 47 ad 3d 3d 2b 21 3d b9 76 84 bd dc 16 72 3d
       0.084608585 0.039347876 -0.06467957 0.05910383
000390 e9 f1 b9 bc 64 64 b7 bc 04 15 a7 bd 22 34 8b bc
       -0.02269836 -0.022386737 -0.08158305 -0.016992632
0003a0 b8 8a 61 3d c5 67 d7 3b 49 26 4e bd 25 7d 87 3c
       0.055063933 0.0065736496 -0.05032948 0.016539166
0003b0 2e ae 0c bd b0 63 91 3d b8 ed a1 bd cb 0d 09 bd
       -0.0343458 0.07099092 -0.079066694 -0.03346042
0003c0 f8 58 b2 bd a0 8a 1c bd 3a f9 b4 3c ce f0 96 3d
       -0.08708376 -0.03821814 0.022091497 0.073701486
0003d0 f4 53 1c 3c 41 52 9e 3d 23 07 20 3c 48 b3 2a 3d
       0.0095415 0.077305324 0.0097673265 0.041674882
0003e0 de 82 7f 3d ef 4a 81 3d 86 80 59 bd 7f d7 93 3d
       0.062380664 0.063131206 -0.053101085 0.07218837
0003f0 b0 2c 4a 3d 14 f5 27 bd eb 42 30 bd 6b 71 94 bd
       0.049359024 -0.04100521 -0.043032568 -0.07248195

net.2.bias f4 [32]
000000 3f 65 3c bd 5b 2b e1 3b ae 33 7c bc 09 87 f1 bc
       -0.045994993 0.0068716235 -0.015393181 -0.029483335
000010 d9 dc 3a bd 46 54 cf 3c 32 d1 93 bd e4 fc b5 3d
       -0.045620773 0.02530874 -0.07217635 0.08886126
000020 73 f9 d9 bb b8 ca ba 3c 09 30 0b 3d 61 30 da bc
       -0.006652051 0.022801742 0.033981357 -0.026634397
000030 28 c0 76 3d 20 1d 7e bb 80 f1 3a 3c 08 87 90 bd
       0.06024185 -0.0038774684 0.011410117 -0.07057005
000040 66 fe 85 3c 2e 04 ca 3c 87 7b 98 3c 45 15 86 bc
       0.016356658 0.024660196 0.01861359 -0.016367564
000050 be 7c 8e 3d d0 66 79 3d 9d c7 75 3d 57 43 13 bc
       0.069573864 0.060889065 0.06000482 -0.008988223
000060 82 79 a1 3c 8d 04 77 bd f7 0e 60 bd 31 db 9e bc
       0.01971126 -0.060307074 -0.05470177 -0.019391628
000070 8e 8d 4a 3c c9 38 64 bd fb f4 93 bd 62 4b fb 3c
       0.012362851 -0.055718217 -0.07224461 0.030675594

net.4.weight f4 [64, 32, 3, 3]
000000 d6 7b ec 3c 28 2a 00 bd 70 56 3e 3d b3 88 17 bd
       0.028867643 -0.031290203 0.046469152 -0.0369956
000010 4b 9a 54 3d 13 f6 1c 3d a3 2d 4f bc 5d 7b 82 3d
       0.051904958 0.038320612 -0.012645158 0.06371186
000020 a5 d9 d3 bc 2f a1 9a bc 15 2d 61 3d 91 7b eb bb
       -0.025860617 -0.018875686 0.054974634 -0.007186361
000030 1b 2c 82 bc 30 2d 8b 3c 24 43 09 bb c1 2b 38 3d
       -0.015890172 0.01698932 -0.002094456 0.044963602
000040 01 f7 64 3d ca 4e 0b 3d dd d1 86 3c ea 5f 9a 3c
       0.055899624 0.034010686 0.016457492 0.018844564
000050 d2 52 b6 3b 36 ee 29 3c 72 55 af 3b e2 10 34 3d
       0.005564072 0.010371735 0.005350762 0.043961413
000060 aa 26 16 3d 3a 4b fa ba b3 38 d7 3c 68 86 0b 3c
       0.036657967 -0.0019095906 0.026272153 0.008515932
000070 43 eb d4 3c 8d ce 5a 3d d3 43 0e bd e0 62 5e 3c
       0.025991088 0.05341964 -0.03473265 0.013573378
000080 19 4b e9 bb 5e c0 55 bd a9 b6 54 bd 5a c3 24 bb
       -0.007119548 -0.05218541 -0.05193201 -0.0025140853
000090 b5 6d 3e 3d cf 7c 0b bd 8c 7c bf 3c 12 ea 20 3d
       0.046491344 -0.034054574 0.023374818 0.039285727
0000a0 23 b7 13 bd f3 77 f8 3c b2 6d 7b 3c fa e8 47 bd
       -0.036063325 0.030330634 0.015345978 -0.04880617
0000b0 d8 72 40 3b d3 6c 44 bd 7b b4 70 3d 2a af 0e 3d
       0.0029365327 -0.047955345 0.05876587 0.03483502
0000c0 87 50 f4 3c 48 86 56 3d c8 b8 55 3d 8f 3b 87 3d
       0.029823555 0.052374154 0.052178174 0.06603157
0000d0 bb fd 01 3d e4 00 10 bd de 56 5e 3d 77 24 61 3c
       0.031736117 -0.0351571 0.05428206 0.013741604
0000e0 93 f9 c1 bc 3d 55 b8 bc 93 97 61 3d 7b 19 4d 3c
       -0.023678577 -0.022501582 0.055076193 0.012518282
0000f0 3e 96 2d 3d d6 02 01 3b 9a 1b 5d 3d 23 eb 13 bd
       0.04237961 0.0019685528 0.0539814 -0.036112916
000100 9b 34 ac 3c 4c 3c ac 3c c7 67 d1 3b 95 8a 73 3d
       0.021021178 0.021024846 0.006390545 0.059458334
000110 97 80 9a 3c 2a 28 28 3c 9f 94 41 3d b5 dd 1b 3b
       0.018860145 0.010263482 0.047260877 0.002378327
000120 85 eb 03 3b 89 7a 2f bd 7d 83 ad 3b de 62 b2 bc
       0.0020129394 -0.042841468 0.0052952156 -0.02177566
000130 37 01 23 3d a6 de 68 3d 2e 46 49 bd 62 78 e8 bc
       0.03979608 0.05685296 -0.049139194 -0.028377715
000140 2f b0 7f 3d dc 92 98 bc 92 16 71 3d 64 ef 83 3d
       0.06242388 -0.018624716 0.058859415 0.064421445
000150 64 be 05 bc 08 91 28 bd ca 48 13 3d 04 4a 09 3d
       -0.008163068 -0.041153938 0.03595809 0.033517852
000160 0e 06 6d 3d a2 b1 77 3c 0f 25 1b 3d 6b 12 37 bd
       0.057867102 0.015118035 0.03787714 -0.0446953
000170 9b 86 64 3c d6 1c a2 3c 75 9d 2f 3d 7c 00 d2 bc
       0.013948108 0.01978914 0.042874772 -0.025634997
000180 36 50 8f ba d1 0d ef bc 5c 1d 0a bd 35 e0 0c 3d
       -0.0010933939 -0.029181393 -0.033719406 0.034393508
000190 f3 ba 9d 3c 11 f5 08 3d 64 81 fe 3b f8 7c 06 3c
       0.019254183 0.03343684 0.0077668894 0.008208506
0001a0 77 2c e3 3b e5 30 28 3d 7b fe fd bc 7c f2 b4 3c
       0.006932791 0.041062254 -0.031005135 0.022088282
0001b0 69 58 04 3d 6b fc 0b 3d 7f a5 e7 bc 7f e7 3a 3d
       0.032310877 0.03417627 -0.028277157 0.045630928
0001c0 b4 1a 10 bd 32 b5 fb 3c a7 6e 45 3d a0 d1 f7 3a
       -0.035181716 0.03072605 0.04820123 0.0018907078
0001d0 aa e2 93 3c e1 e9 48 bd 5b 52 88 bc 56 a4 87 bc
       0.018052418 -0.04905117 -0.016640833 -0.016557854
0001e0 fc da 44 bd ef c3 bd bb f5 9f 43 3d a4 ea 9c 3a
       -0.048060402 -0.0057911794 0.04775997 0.0011971784
0001f0 11 0e 85 3d 94 0b 3e bd cc 8a 0f 3d ed f7 7e 3d
       0.064968236 -0.04639776 0.035044476 0.06224816
000200 92 d8 8c 3d a5 73 3c bc cd 59 2c bd 4e fb 29 bc
       0.06877245 -0.011502181 -0.04207783 -0.010374857
000210 bb 1d 5e 3d 6a 95 7e 3c 0d d9 88 3d e9 c2 05 bd
       0.054227572 0.015538553 0.06682024 -0.032656584
000220 c5 13 d5 bc 13 2b 26 3d 25 da f8 3c 21 81 e0 bc
       -0.026010403 0.040568423 0.030377457 -0.027405323
000230 ec 6b 85 3d 42 cd 54 bc de 19 1e bd fb 2a d7 3c
       0.06514725 -0.01298839 -0.038598888 0.026265612
000240 64 be ea bc 10 ce c2 bc f8 24 eb bc ad 97 a8 3c
       -0.028655238 -0.023779899 -0.028704152 0.020580137
000250 97 5d 03 3d d7 5e 34 3d 67 36 eb bc b9 4c 17 bc
       0.032071676 0.04403576 -0.028712464 -0.009234601
000260 9b a6 73 3d 75 c2 c1 bc dd e5 70 bc 35 8f 9b bb
       0.05948506 -0.023652295 -0.014703241 -0.004747296
000270 8b b6 39 bd f6 c5 16 bd 49 ce 72 3d 6d 2c 90 3c
       -0.045340102 -0.036809884 0.05927876 0.017599309
000280 64 ee 90 3c 7c 21 f6 3c db 21 2a 3d 34 69 39 3d
       0.017691799 0.030045263 0.041536193 0.045266345
000290 48 f1 43 3d 0f a9 f1 3c 21 13 4d 3d ef cc 34 3d
       0.047837526 0.029499559 0.05006707 0.044140752
0002a0 e2 a7 80 bb 7d e5 37 3c c2 e1 cc bc eb d8 19 bd
       -0.003926263 0.011224148 -0.025009993 -0.037560385
0002b0 a1 3c 80 3d c0 15 18 bd 45 5d f6 bc bb 90 4d bd
       0.06261564 -0.037130117 -0.030073771 -0.050186854
0002c0 6c 4c 1d bd 08 77 a5 3c 04 82 0f 3d b3 74 2d bd
       -0.03840296 0.02019836 0.035036102 -0.04234762
0002d0 4a 9d 41 3c b0 0c 15 bd 13 a1 95 3c 8e 52 2d 3d
       0.011817286 -0.036389053 0.018265283 0.04231506
0002e0 57 d6 7d bc d6 c7 99 bc d0 84 3a 3d d1 93 fc bc
       -0.015492997 -0.018772047 0.045536816 -0.030832203
0002f0 e8 c2 a0 bb 08 99 2c bd 50 0b 46 3d 81 bb d3 3c
       -0.004906047 -0.04213813 0.048350632 0.025846245
000300 f9 ee 87 bc dd 2a 48 3d 5f 7c 80 3d c8 a0 fc 3c
       -0.016593443 0.048869003 0.06273722 0.030838385
000310 98 10 0e bd 6e 69 c2 bb f4 e1 5e 3d 73 13 4c 3d
       -0.034683794 -0.0059329784 0.054414704 0.049823236
000320 7e 02 4b bc ef 37 3c 3d e0 3a 01 bd 2e 41 ba 3c
       -0.012390731 0.04595178 -0.03155029 0.022736158
000330 af b2 71 3d 6f 5c 91 3c 76 fd 22 bd a7 c4 c0 3c
       0.059008297 0.017744271 -0.0397925 0.023531271
000340 d2 41 1e 3d 57 57 3f 3d 97 e0 06 bd 02 97 9d bb
       0.03863699 0.046714153 -0.03292903 -0.0048092613
000350 af 62 2d 3b 86 66 8a bb 12 94 e7 bb f7 71 7a bc
       0.0026456525 -0.0042236475 -0.007067212 -0.01528596
000360 c6 69 f4 3c 91 e1 19 3d b1 d6 fd ba 84 9a 61 3d
       0.029835593 0.037568633 -0.0019366351 0.055079
000370 c7 97 0b 3c cf 4e bd 3c c6 4e c5 3c 62 36 2f bc
       0.008520073 0.023108868 0.024085414 -0.010694118
000380 29 49 dc 3b 10 0c a1 3b 53 92 10 3d cb 37 a3 bc
       0.0067225886 0.004914768 0.035295796 -0.019924065
000390 16 eb bf bc bf f9 57 bd 52 8b b4 bc 67 b7 f8 3c
       -0.023427527 -0.05272841 -0.02203909 0.03036089
0003a0 26 8a 78 3d e3 90 3d bd 43 a0 4a bc 57 8a 2b 3d
       0.060678624 -0.046280753 -0.012367311 0.041879978
0003b0 81 fd c1 bc 0a 7e 51 3d 61 a8 25 3c dc 1b 37 bd
       -0.02368045 0.05114559 0.010110945 -0.044704303
0003c0 54 f7 99 3c 97 01 fa bc 88 e1 a0 3c 64 76 46 bd
       0.018794693 -0.030518336 0.019638792 -0.04845275
0003d0 6a 1c 74 3d a8 d1 ab bc bc 63 2b 3d 3f ec 06 bd
       0.05959741 -0.020973995 0.04184316 -0.032940146
0003e0 5c e4 39 bd 94 91 f3 3c 8c 65 23 3d 6e 36 7d 3b
       -0.045383796 0.029732503 0.039891765 0.003863718
0003f0 70 7c 15 bd f1 17 33 bb cc fe e1 bc 97 97 f3 3c
       -0.036495626 -0.0027327503 -0.027587317 0.02973537

net.4.bias f4 [64]
000000 01 fa 10 3d 08 41 5b bd 99 5d b1 3c 1d 6e 5c bd
       0.035394672 -0.053528816 0.021651076 -0.05381595
000010 77 69 84 3c 92 4d 43 bc 74 a6 43 3c 25 54 f2 3c
       0.01616357 -0.01192035 0.011941541 0.029581139
000020 36 0f 24 3c 76 8a 2a ba 11 02 cc bc e2 80 df bb
       0.010013392 -0.00065056176 -0.02490333 -0.006820784
000030 60 25 2b 3d bd 46 1f 3d f1 ff 1c bc b8 56 af 3c
       0.04178369 0.03888582 -0.009582506 0.021403655
000040 19 25 dd 3b 23 39 80 3c 7e 82 44 3c b8 ab 34 3c
       0.006748807 0.015652245 0.011994002 0.011027269
000050 7d e7 30 bd 52 3c 7e bb 96 c2 17 bd 4b 39 27 3d
       -0.043189514 -0.0038793278 -0.037050806 0.040826123
000060 7e 46 d9 bc 2b 99 09 3d 64 9e bc 3c 36 f1 53 3c
       -0.026522871 0.033593338 0.023024745 0.012935927
000070 55 12 d2 3b 09 55 5c bc 5f 35 44 bc 1b ce 85 3d
       0.0064108768 -0.013448008 -0.011975615 0.06533452
000080 d1 ef 8a 3c 2b a1 53 3d 67 ed 8a 3c 0d b7 84 3d
       0.016960056 0.051667374 0.016958905 0.06480227
000090 75 b2 c2 3c ca 1e 43 bc b4 02 8f 3c 66 2a 43 bd
       0.023766736 -0.011909196 0.017457344 -0.047647856
0000a0 ea 89 2f 3d 4e 17 3d bd 36 a5 23 3d 9b ea e8 3c
       0.042856134 -0.046164803 0.03995248 0.028432181
0000b0 d6 1d 77 bd a0 c0 cd bc 4c 39 4b bc bc e5 9a bc
       -0.06033119 -0.025116265 -0.012403797 -0.018908374
0000c0 96 ea bf 3c 45 8a fb bc e6 2e 6e 3d b2 d3 31 bb
       0.023427289 -0.03070558 0.058150195 -0.0027134237
0000d0 85 8b c0 3c 5a cc fc bc 12 e7 16 bd ea 72 5e 3d
       0.023504028 -0.030859161 -0.03684146 0.05430881
0000e0 5e 3c 6a bd f3 86 33 bc 89 c4 0c bd 2d 12 8a bc
       -0.057186477 -0.010957467 -0.034367118 -0.01685437
0000f0 96 49 58 3b 8b 69 cd 3c 33 c6 51 bc e8 38 ec 39
       0.0033002845 0.02507474 -0.012803602 0.00045055826

fc.weight f4 [2, 64]
000000 dc 3f f5 3d 90 e8 b5 3c 44 d3 ab 3d 18 53 07 bd
       0.11975071 0.022205621 0.08389905 -0.03303823
000010 da 05 a1 bc 7e e1 c3 bd 2f 48 6e bd 40 30 21 bd
       -0.01965611 -0.095644936 -0.05817431 -0.039352655
000020 ff b1 09 3d db 32 a6 bc 48 fe d7 bd b6 79 0f bd
       0.033617016 -0.020287922 -0.10546547 -0.035028182
000030 da 4b ef 3d 75 7c 35 bd 2a 87 ac bd 1a 2d 82 3d
       0.116843894 -0.044308145 -0.08424218 0.06356259
000040 04 a4 03 bd 53 52 aa bc 2a 37 c1 bd f0 ec b0 bd
       -0.03213884 -0.020791208 -0.0943435 -0.08638942
000050 00 c1 bb 3c 6b a5 a2 3d 0a 53 65 bd 65 a7 01 bd
       0.022919178 0.07941707 -0.055987395 -0.03165378
000060 5c fb 40 3d ca 1f f6 3d 99 ea bc bc 35 61 e8 bd
       0.047114715 0.12017782 -0.023061084 -0.11346666
000070 a4 29 c0 3d c9 2d d3 bd b6 5f 6b bd 77 50 a2 bd
       0.09382942 -0.10311467 -0.057464324 -0.07925504
000080 cc c4 82 3d 82 23 a1 3d 1d 66 fe 3d 87 d0 8a 3c
       0.06385192 0.07868101 0.1242182 0.016945137
000090 f4 07 9f bd a7 b5 be 3d 91 0c c6 3d 47 09 2a 3d
       -0.07765189 0.09311991 0.096703656 0.041512754
0000a0 84 29 32 3d d2 64 ba bd 72 28 b2 bc ea f1 fc 3d
       0.043496624 -0.09101261 -0.021747801 0.12350829
0000b0 71 fe 99 3c 1f 2c ec bd 82 c6 f5 3d b3 a4 b5 3d
       0.018798085 -0.11531853 0.12000753 0.088693045
0000c0 3f 75 bc 3d f0 7d 8c 3d 34 96 82 3d 07 e2 f4 3d
       0.092020504 0.06859958 0.06376305 0.11957174
0000d0 44 f0 68 3d 81 e6 e3 bd 89 21 7f bd d6 bb 3f 3d
       0.05686976 -0.111279495 -0.06228784 0.046809994
0000e0 ad 35 d9 bd a6 b5 ae bd 6d e8 b9 bd 73 57 9e bd
       -0.10605941 -0.085307404 -0.09077535 -0.07731523
0000f0 2e cc 6c 3d 50 1a b9 3d b5 87 88 bd 60 12 5b bd
       0.05781191 0.09038222 -0.06666509 -0.05348432
000100 34 06 11 bd d0 43 34 bd de 22 1b bd 20 4d 76 bc
       -0.035406306 -0.044009984 -0.03787505 -0.0150330365
000110 ac cb db 3d fb cb 02 be e5 57 9d 3c 90 bd 6a bd
       0.10732207 -0.12773125 0.01920695 -0.057309687
000120 57 6a b3 bd d3 b3 d6 3c 66 3c 8b 3d 87 e8 d5 3d
       -0.08760517 0.026208794 0.067986295 0.10444742
000130 b6 8b 93 bd 4d 9a 9c bc 2e d8 d3 bd ff f3 9a bd
       -0.07204382 -0.019116545 -0.103439674 -0.0756607
000140 1d 67 b6 3b d9 4a 70 3d 88 4c 09 bd d0 ae 8c 3d
       0.0055664913 0.05866513 -0.03352025 0.0686928
000150 f8 16 6e 3b aa 32 15 bd 8f e1 bc 3c f5 12 be 3d
       0.0036329608 -0.03642527 0.023056773 0.092809595
000160 c8 90 40 3d f0 ed 5a bd 5c a2 81 bd c8 3d e3 3d
       0.047013074 -0.05344957 -0.06329796 0.11095768
000170 a2 b8 ba 3d 96 77 a3 3d bd 60 a5 bd e8 93 03 be
       0.09117247 0.079817936 -0.08075092 -0.1284939
000180 f8 7a c2 bd a8 f8 1b 3d 07 28 e3 3d ef 6c 7d bd
       -0.09496111 0.038078934 0.11091619 -0.061871465
000190 26 64 05 be df 78 b5 bd a8 ff 27 3d a6 b2 a9 3d
       -0.13026485 -0.08860945 0.041015297 0.082860276
0001a0 cf 3a 01 bd 6d 5b a9 b9 38 cc c6 bd a0 ec 81 bd
       -0.031550225 -0.0003230231 -0.097069204 -0.06343961
0001b0 e9 ec a8 bd a7 11 99 3d f0 c4 c9 bc 21 6c 6d bd
       -0.08248312 0.0747407 -0.02463004 -0.057964448
0001c0 d9 78 9f bc e0 e9 66 3d 10 d2 9b bd f4 26 a8 bc
       -0.019466804 0.056375384 -0.076084256 -0.020526387
0001d0 00 57 38 3d 87 34 9d bc d4 88 20 3d 96 cc b9 bd
       0.045004845 -0.019190086 0.03919299 -0.09072225
0001e0 b3 b9 1d bc 9c 29 8c bd a9 90 e3 3d ba 13 03 be
       -0.009626794 -0.06843874 0.11111576 -0.12800494
0001f0 35 c6 8d bd a0 d9 63 bd f5 c0 51 3d 35 31 83 bd
       -0.069225706 -0.055627465 0.05120941 -0.0640587

fc.bias f4 [2]
000000 d2 4c 91 bd 2e 3e 78 bc
       -0.070947304 -0.015151544
